save_models/citeseer/citeseer.pt (torch, 571723 bytes, 9 tensors)

create_LAM.weight f4 [1, 3, 3327, 1]
000000 45 41 6e bd 57 10 af be 3e 2f f4 bd 85 97 69 be
       -0.058167715 -0.34192154 -0.11923073 -0.22811706
000010 a2 53 07 be d2 93 8f bc cd 74 1b bd ae 8e 28 be
       -0.13215497 -0.01752654 -0.037953187 -0.16460678
000020 97 5a 29 3f af f7 5b 3e 10 15 3c 3e fe 45 2b be
       0.66153854 0.21481203 0.1836741 -0.16725919
000030 63 87 60 be 50 1f 7e be da b7 36 be 4b 0e 2c be
       -0.21926646 -0.24816632 -0.17843571 -0.16802327
000040 db da 3a be df cc 20 be f7 fc 9e be 42 52 89 be
       -0.18247549 -0.15703152 -0.31052372 -0.2682057
000050 6a b2 25 be 0b 05 26 be d7 f1 85 be 14 f5 02 be
       -0.16181341 -0.16212861 -0.26161072 -0.12788802
000060 36 4b ae bd f4 76 c4 3e f9 3d f6 3e f9 c5 4e be
       -0.08510439 0.38372004 0.48094156 -0.20192708
000070 e6 a8 94 be 6f 74 ce 3d 71 15 6c 3d e1 31 25 3d
       -0.2903511 0.10080802 0.057637636 0.04033077
000080 1c 11 a7 bc b1 4f 86 be 79 99 58 be 91 8d 63 be
       -0.0203939 -0.26232675 -0.21152295 -0.22221972
000090 b0 fb 64 be 4d 72 33 be 4a 31 18 be f8 13 f8 bd
       -0.22361636 -0.17524071 -0.14862552 -0.12113184
0000a0 c9 eb 51 be 41 eb 9e bd a0 53 74 3e dd 0d bc 3e
       -0.20500101 -0.07759715 0.23860025 0.36729327
0000b0 fa 11 4a be 7e 84 06 bd 65 dd 80 be 75 c9 93 bb
       -0.1973342 -0.0328412 -0.2516891 -0.0045100995
0000c0 e3 71 02 3e 23 83 97 be ca 1a 94 bd 0a 76 24 be
       0.12738757 -0.29592237 -0.07231672 -0.16060653
0000d0 a8 38 c1 3e 4c f2 0e 3f bd 14 b4 3e 28 18 d3 3e
       0.37738538 0.55838466 0.35172072 0.41229367
0000e0 a0 53 26 be 49 2f 4f be 5e 94 90 be 4f f9 59 be
       -0.16242838 -0.20232882 -0.28238195 -0.2128651
0000f0 51 90 14 3f 19 1d bf 3e 43 f7 73 bd f1 23 26 be
       0.5803271 0.37326887 -0.05956198 -0.16224648
000100 43 3d dc bd 33 f0 a1 3b f6 f7 29 be 79 8f 92 bd
       -0.10753872 0.004941964 -0.16598496 -0.071562715
000110 18 e0 aa bd 21 f5 ce 3a 75 e0 8e be 90 f6 90 be
       -0.08343524 0.0015789607 -0.27905622 -0.28313112
000120 83 c0 98 bd 68 9e e8 bd d8 d8 b8 bd 8d 20 ca be
       -0.07458594 -0.113583386 -0.09025735 -0.3947796
000130 ef 7b 9a be 88 e3 0e be e7 69 97 be 75 9c 17 be
       -0.3017268 -0.13953984 -0.29572985 -0.14805777
000140 6d 49 8e be 90 84 97 be 57 ea b8 bd 65 16 83 be
       -0.27790394 -0.29593325 -0.09029072 -0.25603023
000150 7a 8a 0b be cf 03 c5 bd 99 1e 5f be ed 49 71 be
       -0.13627043 -0.09619867 -0.21789016 -0.23563357
000160 4b d1 0d be d5 fe 40 be 2f e8 ec 3e c5 4a ac 3e
       -0.1384937 -0.1884721 0.46270892 0.33650795
000170 e8 2f b0 bd e7 bf c3 bd 5b 46 44 be 1f 93 41 3f
       -0.086028874 -0.09558087 -0.19167463 0.75615114
000180 be 52 36 3f 08 c2 4c be bc 40 70 be a1 35 6a 3f
       0.71220005 -0.19995892 -0.23462194 0.9148808
000190 c9 94 29 be 87 f9 97 be 1e f5 92 be de 98 19 be
       -0.16560663 -0.29682562 -0.28702635 -0.1499972
0001a0 c7 4f ab bd 40 3c b1 bd a3 27 a2 3e 8b 2f 18 3f
       -0.08364826 -0.0865407 0.31670865 0.59447545
0001b0 66 db 8c bd d0 11 d7 be a0 14 d7 3e 66 c4 7a be
       -0.068777844 -0.42005777 0.42007923 -0.24488983
0001c0 04 dc 75 be d9 1b 5e 3f 8f 01 af be e6 a8 d1 3e
       -0.2400971 0.8676124 -0.34180877 0.40949172
0001d0 28 6b 35 be 04 c5 cc 3d d1 bc d4 3e d1 47 a7 3d
       -0.17716658 0.09998515 0.41550305 0.08167995
0001e0 bd f1 c3 ba c8 13 b7 bb f0 54 31 3b 30 a7 a4 3b
       -0.0014949363 -0.005587075 0.0027058683 0.005024813
0001f0 9d ac 12 3a 23 f6 2e ba da 9e 85 bb 0b 27 50 ba
       0.00055951794 -0.00066742505 -0.0040777745 -0.0007940388
000200 76 2e bf 3b 9d a6 ff b9 15 38 99 bb 7e aa 6d bb
       0.005834396 -0.00048761527 -0.004675875 -0.0036264951
000210 2c 42 5d b9 52 a9 9f bb 3b 9c 7c ba 03 69 2f bc
       -0.00021100853 -0.0048724795 -0.0009636317 -0.010706189
000220 73 fc 2a bc f7 60 b5 bb 00 c3 8e bb a2 ea a0 bb
       -0.010436165 -0.0055352408 -0.004356742 -0.004910783
000230 b1 40 d7 ba 4c 62 1e 3b 29 c3 e9 bb 3d 10 26 bb
       -0.0016422478 0.0024167476 -0.0071338606 -0.0025339269
000240 eb 4c c5 bb c1 cc eb bb 43 68 3b bc 00 b2 ee bb
       -0.006021132 -0.0071960394 -0.011438432 -0.007284403
000250 ee 03 9c bb 85 57 21 3c 59 f4 13 bc 97 de 08 3c
       -0.0047612106 0.009847526 -0.009030425 0.008353851
000260 ec d1 e3 bb fd 29 8c bb f6 d3 04 3b aa 65 4e ba
       -0.006952515 -0.0042774663 0.002026794 -0.00078734255
000270 ab 73 de bb 66 46 8b 3c c1 e1 76 bb ba d7 bf bb
       -0.006788691 0.017001342 -0.003767118 -0.005854574
000280 6f 91 47 3c 41 b6 cb bc 23 87 41 3a a7 eb 77 39
       0.01218067 -0.024867179 0.00073825027 0.00023643543
000290 b2 ba 42 bb 3a 7e ae bc b1 ca 8b ba b8 51 12 bc
       -0.002971333 -0.021300424 -0.0010665265 -0.008930616
0002a0 03 95 5b bb 39 6e c1 ba 42 0d 99 bc 8b 82 39 3c
       -0.0033505566 -0.001475758 -0.01868308 0.011322628
0002b0 20 26 8f bb d3 18 d8 3a 0b e8 8f bb cf ac c6 ba
       -0.0043685585 0.001648689 -0.0043916753 -0.0015157702
0002c0 72 86 ad bb f0 f0 9c bb 12 5e a7 3b 6f 13 31 bc
       -0.005295568 -0.004789464 0.0051076496 -0.010807856
0002d0 f3 d0 01 3b fc ea 90 3c 77 41 04 3a 59 02 a3 ba
       0.0019808381 0.017690174 0.00050451554 -0.0012436613
0002e0 fe 7b fb ba 81 86 39 bb f4 a4 2a 3c 5d a6 81 3c
       -0.0019186733 -0.002830893 0.010415304 0.015826399
0002f0 21 a8 36 3c ed 35 73 bc 54 07 4e bc f9 06 0c bc
       0.0111484835 -0.0148444 -0.012574989 -0.008546584
000300 dc 6c db 2e d9 63 53 ba 7c 20 c4 3c 3c ff 57 bb
       9.978304e-11 -0.00080638897 0.023941271 -0.0032958528
000310 78 59 05 bb b0 5e 7d 3a da 7d 3d 39 b0 89 bb 3b
       -0.0020347517 0.00096652936 0.00018071328 0.0057232007
000320 c2 b7 35 bb 20 77 45 bb 63 c9 ab ba bf ce b1 bb
       -0.0027727936 -0.0030130818 -0.0013106283 -0.0054262574
000330 e1 65 9b bb 14 80 83 b8 f8 66 a4 b9 9a 3e 8e bb
       -0.0047423695 -6.270423e-05 -0.00031357235 -0.004340959
000340 81 e5 8b bc 51 68 6b 3c 0f 5e e4 3a 2a 5b 71 3a
       -0.01707721 0.014368133 0.0017423051 0.0009207005
000350 be fc 38 bb 53 b9 e5 ba 8e da 61 bb c4 b3 08 bc
       -0.0028226818 -0.0017526544 -0.0034462544 -0.008343641
000360 44 c7 29 bc 87 92 84 bb 59 0b d5 bb 01 f5 90 3b
       -0.01036245 -0.0040457877 -0.006501597 0.004423738
000370 4c ba f6 bb 8d 19 2e bb b4 e8 45 3c 7e c0 a8 2d
       -0.0075295325 -0.0026565522 0.0120794065 1.9184872e-11
000380 04 fc 6c ba f2 be 21 bc 51 8e 00 bc d7 04 f9 bb
       -0.0009040239 -0.009872185 -0.007846431 -0.007599454
000390 b8 6e 42 bc 2c 54 6d bc 93 0c 0e bc 2f 33 05 3b
       -0.011867218 -0.0144854 -0.00866999 0.0020324697
0003a0 80 5d 21 3c ef 71 b7 3b f3 35 ef bb 47 e4 0c bc
       0.009848952 0.0055982987 -0.0073001324 -0.008599347
0003b0 50 f7 86 bc 5d cb d1 bb ea 66 d9 3b be 32 9a 3b
       -0.01647535 -0.0064024166 0.0066345828 0.004705756
0003c0 8d f0 ea 3a 11 80 23 bc e5 ce ac bb e9 f1 53 bb
       0.0017924473 -0.009979264 -0.005273687 -0.0032340235
0003d0 d6 87 35 bb 3c 27 c9 bc 46 53 fa bb 7e fd 01 bc
       -0.0027699373 -0.024554841 -0.0076393215 -0.007933972
0003e0 5d af 1b 3a 67 a4 4b bb 85 52 9d bb df 98 4c bc
       0.0005938912 -0.0031073333 -0.004801097 -0.012487619
0003f0 c1 1b 83 bc 74 95 e4 b9 8d ec 23 bc 10 0a 03 b8
       -0.016004445 -0.000435989 -0.010005129 -3.1242205e-05

create_fadj.weight f4 [1, 4, 3327, 1]
000000 90 e1 63 3e f0 1b a2 3e 03 7b c8 bd 3e 7a 9b bd
       0.22254014 0.3166194 -0.097890876 -0.07591675
000010 96 8b 81 3e 1c f2 d2 3e 62 8a ad 3e 18 1a c7 3f
       0.25301808 0.4120034 0.3389464 1.5554838
000020 74 bd 2d 3f 57 1d 2d 3f 09 11 dd 3e b8 09 fa 3e
       0.6786721 0.67622894 0.4317706 0.4883554
000030 e1 0e 81 3f 8c 3e 0b be fd 4b 48 3e 03 26 5c 3e
       1.0082666 -0.13598078 0.19560237 0.21498875
000040 10 7b 23 be a3 10 c7 3c 1b 56 72 3e a0 06 96 3f
       -0.15964913 0.024299925 0.23665659 1.1720772
000050 54 89 fe 3d 63 4b 52 bd 90 99 26 be b0 df a9 3d
       0.12428537 -0.051341426 -0.16269517 0.08294618
000060 fb 36 30 be 6b b6 56 3f 8c a0 7b 3f ae e2 37 be
       -0.17208473 0.838721 0.9829185 -0.17957565
000070 4f 77 20 be 71 41 84 3c ff 9e eb 3e d9 53 6b 3c
       -0.15670513 0.016144486 0.46019742 0.014363253
000080 cf 2a b3 3d f9 29 02 3e 5f 6d 11 3f b8 aa f6 3d
       0.087483995 0.12711324 0.5680751 0.12044281
000090 9f 43 8c 3d 4e c8 9c 3e 1b 07 39 be e4 e5 f6 bd
       0.06848835 0.3062157 -0.18069117 -0.12055567
0000a0 d5 f7 38 3d 6b 56 f8 3d 60 67 61 3f b0 a8 62 3e
       0.045158226 0.12125858 0.8804836 0.22134662
0000b0 04 c5 f0 bd 09 81 52 be cd e1 ba 3e 45 b7 9b 3d
       -0.11756328 -0.20557036 0.36500397 0.07603315
0000c0 c4 68 5e 3d 80 31 50 be 80 36 26 3e d9 3f ae 3d
       0.05429913 -0.20331383 0.16231728 0.08508272
0000d0 85 9a 3a 3f 11 5f 47 3f 8e dc 00 3f b7 32 05 3f
       0.7289203 0.77879435 0.5033654 0.5203051
0000e0 e0 d3 80 be fd ca d3 bd aa 58 6e be ce 80 f1 3e
       -0.25161648 -0.10341451 -0.2327601 0.47168583
0000f0 28 64 9e 3f c0 72 69 3e 1b 04 1c be de 3d a7 3e
       1.2374315 0.2279768 -0.15235941 0.32664388
000100 db be 1d be 24 7e 80 3e 9f b6 4d be 45 b0 48 bd
       -0.15404837 0.25096238 -0.20089196 -0.04899623
000110 c1 41 23 be 3c 72 fc 3e 89 88 3b be d1 f1 59 3d
       -0.15943052 0.49305904 -0.18313803 0.05320913
000120 41 7c b8 3d 04 97 e0 bd 7a 55 77 3f 53 76 88 3e
       0.090080746 -0.10966304 0.966148 0.26652774
000130 4d d2 da 3e 88 ab 12 be 5d e2 83 3d b9 49 3d 3f
       0.42738572 -0.14323246 0.0643966 0.73940617
000140 13 5c 62 bc 46 db 91 3d 39 06 eb 3d f7 63 f5 bd
       -0.0138158975 0.07121901 0.11475796 -0.119819574
000150 e7 3d c4 bd ad b2 ab 3f ee 42 33 be 44 a3 3c 3d
       -0.095821194 1.3413903 -0.17506 0.04605414
000160 ed 82 25 3e 0d 12 bd 3d 24 ae ed 3e ba 3c 3d 3e
       0.16163225 0.092319585 0.4642192 0.18480197
000170 9c 33 80 be af e5 1d be 17 46 21 be 62 ea d5 3e
       -0.25039375 -0.15419649 -0.15749393 0.41780382
000180 ee ac b4 3e d0 ac 8b 3d a8 a3 44 be 65 0b 96 3f
       0.35288185 0.06820071 -0.19203055 1.1722227
000190 cc d1 bf bc 4d 35 a4 3f eb a1 9b bd 25 92 66 3c
       -0.023415469 1.2828766 -0.07599243 0.0140729295
0001a0 cf 1e 5c be 62 cb 0f be 3b e6 a0 3f a1 93 c4 3f
       -0.21496128 -0.14042428 1.2570261 1.5357553
0001b0 79 b7 9d 3f 7f 06 8a 3f ed ae bd 3f 14 c5 a2 3f
       1.2321616 1.0783232 1.4819008 1.2716393
0001c0 56 1d 8e 3f 78 75 be 3f 8c 6c 9e 3f 60 d4 ac 3f
       1.1102703 1.4879599 1.2376876 1.3502312
0001d0 31 c3 a0 3f 61 ce bf 3f d5 91 b9 3f 98 8e 98 3f
       1.2559568 1.4984857 1.449763 1.1918516
0001e0 2f 7c 1a bc dd ef a6 bb 33 eb 66 3b 0f 5a ec 3b
       -0.009429022 -0.005094512 0.0035235405 0.0072128843
0001f0 18 c0 a6 3b 9a 21 41 bc 3c f0 ce 3b ca 3a 20 bb
       0.0050888173 -0.011787796 0.0063152593 -0.0024449104
000200 8f da 65 bc cb b7 29 3c c1 a5 de 3a e1 41 e4 bb
       -0.014029159 0.010358761 0.0016986654 -0.006965861
000210 42 1b 9c bb 4c 61 dd b9 01 6e d7 38 95 3e 6b bc
       -0.0047639916 -0.00042224897 0.00010272489 -0.014358182
000220 f3 c6 58 bc 73 45 21 bc b0 e4 aa bb db 93 43 ba
       -0.013231027 -0.009843218 -0.00521525 -0.0007460692
000230 22 2e a9 3b e0 60 d8 3b 75 7b 18 bc cb ff 35 3c
       0.00516297 0.0066033453 -0.009306778 0.011108349
000240 b6 88 00 bc f6 75 29 bc de 40 e0 3b f8 ea 14 bc
       -0.007845094 -0.0103430655 0.0068436703 -0.009089224
000250 72 b2 23 bc 8b aa 0c 3b 69 86 d1 3c 2c 08 f8 3b
       -0.009991275 0.0021463956 0.025576787 0.0075693335
000260 d5 3c a5 bc 98 ca f1 3b b9 a1 ea bb 71 74 a8 3a
       -0.020170609 0.0073788874 -0.007160392 0.0012852085
000270 03 ae 06 bc d7 00 87 bc 4f 04 cc bb 79 f3 38 bb
       -0.008220199 -0.016479893 -0.0062260996 -0.0028221293
000280 54 90 ae 3c 14 a9 2d bc d5 e1 c5 ba 92 e0 2c bc
       0.021309055 -0.010599393 -0.001509721 -0.010551589
000290 ed f6 b2 bb 0e 89 91 bb a5 34 6c bc 77 56 ba bb
       -0.0054615648 -0.004441387 -0.014416848 -0.005686577
0002a0 a4 b5 8b 3b 3e 3f ca 3a cc 88 c0 3b f1 1b 32 3c
       0.0042635966 0.0015430225 0.0058756825 0.01087092
0002b0 ad c5 ee 3a f4 ac e4 bb 05 b5 ac bb c0 9b 99 ba
       0.0018216871 -0.0069786254 -0.0052706026 -0.0011719391
0002c0 6e f0 83 3c 6c dc 58 bc a6 e8 ee 3b f3 48 df bb
       0.016105857 -0.013236146 0.0072909174 -0.006814116
0002d0 4c 83 ba ba 54 2b d8 3b 96 44 43 bc 6c c1 2d 3a
       -0.0014229803 0.006596962 -0.011918208 0.00066282484
0002e0 21 33 fe 3b 3c 81 1d 3c 85 dc ee bb b5 a2 01 bc
       0.00775756 0.009613331 -0.0072894716 -0.007912328
0002f0 0c 22 cb 3b 3d d9 09 bc 8d 4e b4 bb b1 d8 0e bc
       0.006199127 -0.00841361 -0.005502528 -0.008718655
000300 d1 39 b3 3a 88 f6 26 3a 56 1b d9 3b 2f fb eb bb
       0.0013673847 0.00063691335 0.006625573 -0.0072015743
000310 39 72 aa bb 57 e7 4f 3c 9e 62 62 3b b6 5e bd 39
       -0.0052016047 0.012689433 0.0034543644 0.00036119454
000320 ac 77 99 3b b0 09 88 39 6e 2c 85 bb 4a d2 79 bb
       0.0046834555 0.0002594716 -0.0040641343 -0.0038119727
000330 33 b5 2c 3b 0a 46 17 bc e8 5f a5 bb 56 dd 87 3b
       0.002635312 -0.009233007 -0.0050468333 0.0041462583
000340 f5 e9 c5 bb df 43 f2 3b 22 59 bc 3b 9a 2f 85 3c
       -0.0060398527 0.007393345 0.00574793 0.01625805
000350 37 10 15 bb a1 97 8c bb 0f 6f 57 bb ec 47 48 bc
       -0.002274526 -0.0042905365 -0.0032872593 -0.012224179
000360 7e 1d 9e bb f6 8f ae bb 04 7e 60 bc 5e 00 27 3b
       -0.004825293 -0.00532722 -0.0137019195 0.0025482397
000370 70 05 70 39 07 b4 0a bb d8 c7 32 3c 52 b6 1a ba
       0.00022890209 -0.0021164434 0.010911904 -0.00059018016
000380 5b 26 41 3b f1 53 74 bc 0b 69 4a bc 6a 67 cd bb
       0.0029472325 -0.014912591 -0.012354146 -0.0062684314
000390 6a c6 f6 38 d9 01 45 bc 6e eb 69 3b 44 66 13 3b
       0.000117671516 -0.012024366 0.0035693306 0.0022491375
0003a0 2a f1 8a 3c f9 72 8a 3b ec 67 e0 bb 55 71 cc 3b
       0.0169607 0.0042251316 -0.006848326 0.006239096
0003b0 5e 9e 6d bc 78 d9 1d bc ab af 64 bb 17 5b 12 bb
       -0.01450309 -0.009634368 -0.0034894745 -0.0022332126
0003c0 8d 65 98 3b c4 a7 7f bb ec 8c 81 3a 7f 84 fd 3b
       0.0046507777 -0.0039009908 0.0009883917 0.007736742
0003d0 74 e8 50 bc cf ee a2 3b 38 83 43 bc e6 ee a4 bc
       -0.012750734 0.004972316 -0.01193314 -0.020133447
0003e0 39 59 c6 3b 1b aa 34 3a e9 8e c2 3b 96 aa 42 3c
       0.0060531166 0.0006891803 0.0059374464 0.011881491
0003f0 b0 23 20 3c de 77 93 3b d8 b3 56 bc d2 7e 66 bc
       0.009774134 0.0045003733 -0.0131044015 -0.014068322

fea_att.weight f4 [1, 2, 1, 1]
000000 ff d7 4e bd 12 52 49 3e
       -0.05049896 0.19660214

trans.weight f4 [32, 3703]
000000 d3 fd 9e ba 84 0f af bd 5e 88 81 3d c3 78 80 3d
       -0.0012130089 -0.08547881 0.06324838 0.062730335
000010 31 49 5a 3a b9 02 f7 3c 62 09 1d 3c ee 19 a6 3c
       0.00083269464 0.030152665 0.009584757 0.020276036
000020 2b f1 e6 3c 1a a8 c3 3d 64 3e 42 3a de 59 45 3d
       0.02819117 0.09553547 0.00074098096 0.048181407
000030 0a 7b fb 3c a4 7a 46 3e 5d 89 03 bd 33 ed e3 bb
       0.030698318 0.19382721 -0.03211342 -0.0069557666
000040 a7 19 59 3e f0 33 89 bd 20 8a 78 be 86 05 50 bc
       0.21201192 -0.066993594 -0.2427144 -0.012696629
000050 35 ff ae b9 c4 c1 9b 3c 8f b7 a3 3d 13 43 85 bc
       -0.0003337801 0.019013293 0.079939954 -0.016267335
000060 0d 70 2b bd ab 9d b2 bd e6 25 6b bb a1 bb ea bd
       -0.041854907 -0.08721479 -0.0035880744 -0.114615686
000070 2e 5a 19 3e d3 97 d0 bd ff 4e a2 bb b3 92 26 bd
       0.14975807 -0.10185208 -0.0049532647 -0.040667247
000080 6d ae 81 bd ec 51 d2 3b cc 75 eb 3c 5e 85 cf bd
       -0.06332097 0.0064184573 0.028742693 -0.1013286
000090 ee b9 bf 3d f2 be 75 3e 1f 02 36 3e 33 a7 42 3d
       0.09361635 0.23998621 0.17774247 0.047522735
0000a0 c3 74 06 bd 62 83 46 be 5b 8a a0 bd e0 68 66 bb
       -0.032826196 -0.19386056 -0.07838889 -0.0035157725
0000b0 4b 45 f9 be 24 b1 d6 3c d3 26 18 3e f5 f0 da bc
       -0.4868568 0.026207514 0.1485856 -0.026726225
0000c0 b1 70 42 bd 9b 58 1a b9 2a d6 2d 3c 0f 1b a4 3d
       -0.047470752 -0.00014719593 0.010610143 0.080129735
0000d0 08 de 5a 3c 2f b2 09 3e e9 08 99 3d 28 95 1a be
       0.0133586 0.13446878 0.074724026 -0.15095961
0000e0 29 98 6b 3b 6c 70 a3 bd 95 23 94 bb 9e 1c 97 bc
       0.0035948849 -0.07980427 -0.0045208433 -0.018446263
0000f0 66 5a 07 3d 56 ed 04 be f1 4a 91 3c 62 a2 71 3c
       0.033045195 -0.12981161 0.01773593 0.014748188
000100 11 0c 7d bb 26 31 0a 40 e4 42 a2 3c 55 1a 07 3d
       -0.0038611928 2.1592498 0.019807287 0.032984097
000110 4c 16 a9 3c 88 95 ba 3d 28 d4 8d 3c 83 4e 42 3d
       0.020640515 0.09110552 0.017313078 0.047438156
000120 c8 65 16 be 04 a4 e6 bd cf f4 dc 3a 4c 19 d1 bd
       -0.14687264 -0.11261752 0.0016857627 -0.10209903
000130 bd bd 15 be f7 0d 92 bb 8d 05 30 3e 55 e0 07 bd
       -0.1462316 -0.004457231 0.17189617 -0.033172924
000140 f4 e4 89 3b a9 f0 df 3c ca 2f 9b 3d 4e 36 8a bb
       0.0042082015 0.027336435 0.075774744 -0.0042178994
000150 17 91 4e bd 7c d7 45 bd f9 04 70 3c 1b 8b ca bd
       -0.050431337 -0.048301205 0.014649623 -0.098898135
000160 26 0e 61 3c c3 e0 d7 3c 98 19 66 bd 8c 5d 8d bc
       0.013736283 0.026352292 -0.05617675 -0.01725652
000170 2f 4d 9c bd c1 87 f6 3d a4 7f 14 3c 57 06 62 bc
       -0.07631909 0.12037612 0.009063635 -0.013795457
000180 a0 bd 09 3d 89 4b 9e bb c0 1e 3a 3d 2d 31 b7 3c
       0.033628106 -0.004830782 0.04543948 0.022362316
000190 88 0f 33 3c 45 80 8f 3b 75 14 2b 3e 6d a1 17 3d
       0.010928996 0.0043793046 0.16707022 0.037019182
0001a0 37 63 c5 bc 36 97 bc bd 9f 66 c0 3c e6 7d 7d 3b
       -0.02409516 -0.09208529 0.023486434 0.0038679778
0001b0 f2 64 ae bb 7c b0 58 3d 04 94 70 3e 88 54 6e 3d
       -0.005322092 0.052902684 0.23493963 0.058186084
0001c0 74 2d 82 3d 93 32 af 3d ec 15 0e bd cb 2f a1 3c
       0.06356326 0.08554568 -0.034688875 0.01967611
0001d0 a7 26 11 3d 32 62 39 ba 7e 1e 13 bc 70 9d ea bc
       0.035437252 -0.0007071822 -0.008979438 -0.028639525
0001e0 2d d6 c4 3c 5d c0 08 bd 97 10 2f 3e 32 3e aa 3c
       0.024027908 -0.033386577 0.17096172 0.02078161
0001f0 49 16 b9 bd 79 09 8e 3d 7d a5 5d 3c ce 80 64 bd
       -0.09037454 0.069354005 0.013528225 -0.0557869
000200 df 3c 8a bc b8 44 86 3d 78 7a 27 3d 49 5b a4 3c
       -0.016874729 0.06556076 0.04088828 0.02006306
000210 69 22 f1 3c 31 d5 44 3d bc bc 02 3d 4d fc e5 3d
       0.029435353 0.048054878 0.031918272 0.11229763
000220 59 8c 9c bc cf 97 b5 3c 54 03 22 3e 56 71 a5 3c
       -0.019109892 0.022167115 0.15821582 0.020195644
000230 ef 79 df 3d 6c bd a7 3d e1 3f f2 bd 5a cd d9 3a
       0.10911929 0.08190426 -0.1182859 0.0016616986
000240 66 a4 5b bb b0 9b b2 3c d5 a6 89 3d 27 33 1e 3d
       -0.0033514737 0.021802753 0.06721274 0.038623
000250 14 64 5b be d5 de ff bc 24 ce 17 3d 3d 62 2d 3d
       -0.21424896 -0.031234184 0.037061825 0.042330015
000260 d1 49 ad 3c 1e 3f 07 3c e3 a8 3d 3b 09 97 a5 bd
       0.021153362 0.008254794 0.0028939776 -0.08085448
000270 79 6d aa bd f8 57 a4 bc 81 30 aa 3c e2 2f c8 3c
       -0.083216615 -0.020061478 0.020775082 0.024436895
000280 80 34 e3 3c 52 57 09 3c 98 22 db bd a0 8f 8c 3c
       0.027734995 0.008382635 -0.106999576 0.01715833
000290 fd a1 93 3c a6 4d cd 3d ec f2 d0 be 8d 5e 12 bd
       0.018021578 0.10024576 -0.40810335 -0.035734702
0002a0 d8 48 d7 3d 5d ea df 3e b0 0e 68 bc bf 42 e2 bd
       0.10511941 0.43733492 -0.014163658 -0.11047887
0002b0 98 7f 23 3c 2b 11 dc 3c a8 46 d5 bd ed 55 bb bc
       0.009979151 0.026863655 -0.10413867 -0.022868121
0002c0 57 bb 42 bc ce 51 80 bd fe 71 09 bd 2e db e7 3d
       -0.011885486 -0.06265603 -0.033555977 0.11321102
0002d0 51 2d 9a 3c bb f5 94 3c f1 42 92 3d 1a 86 df 3c
       0.018820437 0.01818358 0.07141674 0.027285624
0002e0 e4 32 db 3d cd 9b 81 bb 73 54 bb 3d 36 a7 34 3d
       0.10703066 -0.0039553405 0.09146967 0.044104777
0002f0 f7 e7 cf bc 2a 5d a4 3d 58 46 41 bc cc d2 05 3c
       -0.025379164 0.08025582 -0.011796556 0.008167934
000300 0b 70 bc bc e5 ef 82 3b b9 af db 3b 2c 18 04 3d
       -0.023002645 0.003995883 0.0067042974 0.032249615
000310 00 88 eb 3c dc f6 7e be 94 1c c1 3b a7 0a ad bd
       0.028751373 -0.24898857 0.0058932994 -0.084492974
000320 88 cd 2f 3d 64 d4 df 39 c0 cc a8 bb 7c 82 9f bc
       0.04292062 0.00042692118 -0.005151361 -0.0194714
000330 a8 4c 32 bd 89 54 15 bc 91 4b 18 3e 4a a2 83 3c
       -0.043530136 -0.009114393 0.14872576 0.016068596
000340 56 7d 5e 3d fd ee 32 bb ba d8 02 be 0f 3d 8a 3d
       0.05431875 -0.0027303093 -0.12777987 0.06749927
000350 f4 ac d3 bc eb 21 34 3e d0 30 4a 3d 67 db e3 3d
       -0.025839306 0.17591064 0.049362957 0.11125832
000360 cf 6c 79 bd b6 a0 42 3d 09 2a e0 bc da b3 7c 3c
       -0.060894784 0.047516547 -0.027363794 0.015423739
000370 7b b8 8f 3d f8 8c 83 bc f0 30 bb bd 1a 72 35 bc
       0.07017609 -0.01605843 -0.091401935 -0.011074567
000380 72 c7 ce bd 8d 2d 90 bd 5a c9 48 3e a9 33 bd 3b
       -0.10096635 -0.07039938 0.1960806 0.0057739806
000390 a7 32 06 3d 9a 61 82 3c cf 31 3a bc 8b f0 ad 3c
       0.03276315 0.01591568 -0.011364414 0.021232864
0003a0 79 f5 f3 3d a6 a1 4d 3c a4 c0 6f bd 10 fe d7 bb
       0.119120546 0.012550747 -0.058533326 -0.006591566
0003b0 34 55 f9 be 01 81 d8 3c 70 dd cb 3c cd f0 23 ba
       -0.48697817 0.026428701 0.024885863 -0.00062538387
0003c0 17 dd 61 3c 22 16 8c 3d d9 3e 03 3d e6 a9 0f 3c
       0.013785622 0.06840159 0.032042358 0.008768534
0003d0 9d 1a 52 3d 1e 35 a9 be f9 44 96 3d 5e 8c 35 be
       0.05129491 -0.33048338 0.07337374 -0.17729327
0003e0 53 0a 1f be 71 e2 ad 3d 76 3f a1 3d 82 97 b1 3c
       -0.15531282 0.08490456 0.07873432 0.02167869
0003f0 68 0e 79 3c 3b 27 18 3e 77 69 33 be 7e 1d 8d bb
       0.015201189 0.14858715 -0.175207 -0.0043064943

trans.bias f4 [32]
000000 ce cb 04 3e f6 69 04 3e 3f 01 bc 3d 97 46 d0 3d
       0.1296837 0.12931046 0.09179925 0.10169714
000010 4a a5 d9 3d 97 2b ce 3d 88 61 f9 3d 2f d4 10 3e
       0.106272295 0.10066908 0.12176806 0.14143442
000020 b7 08 c8 3d bf 74 0c 3e d9 d0 d9 3d c2 0d 0f 3e
       0.09767287 0.1371641 0.10635538 0.13970092
000030 fc 66 05 3e 84 4e 28 3e b3 25 d8 3d 7f 09 d1 3d
       0.13027567 0.16436201 0.105540656 0.10206889
000040 38 55 d4 3d 30 d6 03 3e d6 74 05 3e 51 ef d2 3d
       0.10367817 0.12874675 0.1303285 0.10299552
000050 e8 f2 14 3e 69 1c d1 3d f0 5e c0 3d 66 37 d8 3d
       0.14545786 0.10210497 0.09393108 0.105574414
000060 00 a5 bf 3d 80 ad 0b 3e 38 4a ef 3d 61 2d d6 3d
       0.09357643 0.13640404 0.11684078 0.10457874
000070 50 3a dd 3d 19 5f f5 3d 06 08 e9 3d b8 ed cf 3d
       0.10802138 0.11981029 0.113784835 0.10152763

slayer.weight f4 [6, 32]
000000 df bc e2 bf f2 58 dc bf c3 b4 97 bf ad 3f cf 3f
       -1.7713889 -1.7214644 -1.1852039 1.6191307
000010 d9 2a ba 3f 6c a6 ea 3f 99 5d d6 bf ce 29 a5 bf
       1.4544326 1.8332038 -1.6747314 -1.2903383
000020 b4 92 9a 3f de d0 a1 bf a9 6e 97 bf b6 57 aa bf
       1.207602 -1.2641866 -1.1830646 -1.3308017
000030 4d 59 ac 3f f1 4a a4 bf 46 ec b4 3f f8 d6 bf 3f
       1.3464752 -1.283537 1.4134605 1.4987478
000040 84 5b ba 3f 3f cd c8 bf 58 ac c0 be ac 3b 99 bf
       1.4559178 -1.5687636 -0.37631488 -1.1971335
000050 8f 90 01 bf c0 47 d8 3f 0c 75 b3 3f 1d c8 a0 bf
       -0.50611204 1.6896896 1.4020095 -1.256107
000060 72 e2 c1 bf 18 a1 c7 bf 64 05 d2 3f 7c c6 e0 3f
       -1.5147231 -1.5596037 1.6407895 1.7560573
000070 46 78 af 3f 9c e3 f0 bf 36 de aa 3f 42 ad ce 3f
       1.370858 -1.8819461 1.3349063 1.6146624
000080 df 34 6f 3f 8b e2 96 bf 1b e9 10 40 40 5a c5 3f
       0.9344005 -1.1787885 2.2642276 1.5418167
000090 93 3b bc bf 10 48 b3 bf a3 57 91 bf 77 59 d0 bf
       -1.4705681 -1.4006367 -1.135487 -1.6277303
0000a0 b2 5b c3 3e 89 c1 d3 bf 8f c1 c0 3f bb 77 d5 bf
       0.38155895 -1.6543437 1.5059069 -1.6677164
0000b0 9d 0d f8 3f 95 25 da 3f 56 ab c5 bf 76 20 cc 3f
       1.9379154 1.7042719 -1.5442913 1.5947406
0000c0 03 7d c0 bf d0 57 0a 40 63 44 01 40 25 25 c0 3f
       -1.503815 2.1616096 2.019799 1.5011336
0000d0 37 ae 13 be ce 8a b7 bf 14 7a cf 3f 9e 60 01 be
       -0.14421926 -1.4339235 1.620913 -0.12634513
0000e0 db 9f ff 3f 45 6d c6 bf 83 f9 af 3f 65 8a b0 bf
       1.9970659 -1.5502096 1.374802 -1.3792235
0000f0 73 7f f7 bf 27 cd 98 3e cc 00 f7 bf 00 ae ce 3f
       -1.933577 0.2984402 -1.9297118 1.614685
000100 31 0b dc bf b5 f6 cb bf 1d 9f 98 bf 6f cf b4 bf
       -1.7190915 -1.5934664 -1.1923558 -1.4125804
000110 53 03 a0 bf 2d dc bb bf e3 5b c8 bf c4 19 ed 3f
       -1.2501014 -1.4676567 -1.5653042 1.8523488
000120 36 31 01 40 e2 71 e9 3f 7b 09 e5 3f 6e 78 fe 3f
       2.0186286 1.8237879 1.7893518 1.9880502
000130 e1 8b c5 bf 8e 41 e1 3f f2 27 a2 bf 5a 3d 8e bf
       -1.5433313 1.7598131 -1.266844 -1.1112473
000140 1d 37 9f bf 77 c4 e8 bf 16 81 e6 bf d4 fe e3 3f
       -1.2438694 -1.8184956 -1.8008144 1.7812142
000150 4a 49 fc 3f 31 29 ba bf b4 fa 91 bf 63 e2 b8 bf
       1.9709866 -1.4543821 -1.1404634 -1.4444088
000160 50 73 53 3d eb 8b e3 3f 67 81 fe 3f 1a 7a bc bf
       0.051623642 1.7777075 1.988324 -1.4724762
000170 3e 55 7c bf b8 c4 08 3f 41 84 77 bf 0e 75 b7 bf
       -0.9856757 0.5342517 -0.9668618 -1.4332597
000180 59 4d 03 40 e0 15 2b 3f d6 e4 5c bf 78 82 c4 bf
       2.051596 0.66830254 -0.86286676 -1.5352316
000190 19 64 c2 3f b8 97 86 3f f7 ef 14 3f f3 9e a7 3f
       1.5186797 1.0515051 0.5817866 1.3095382
0001a0 23 f7 0e c0 ba bd 9b 3f 2c b4 07 c0 8a 89 9b 3f
       -2.233834 1.2167275 -2.1203718 1.2151349
0001b0 68 45 de 3f d5 3c d6 3f d4 c3 a0 3f 7d 8b f0 bf
       1.7364931 1.6737314 1.2559762 -1.8792568
0001c0 da da ac 3f 6c 08 03 40 f1 07 ce 3f 15 ea 06 c0
       1.3504288 2.047389 1.6096174 -2.1080372
0001d0 74 6b e7 3f 08 da 8b 3f ef d2 cc bf 2a 6e f2 3f
       1.8079667 1.0925913 -1.6001872 1.8939869
0001e0 95 9d a5 bf 98 ca 98 3f 8f 9a aa bf cf e9 8b 3f
       -1.2938715 1.1936827 -1.3328418 1.0930728
0001f0 9a d2 f9 bf 60 16 08 c0 58 b5 f9 bf 73 91 c6 bf
       -1.9517395 -2.1263657 -1.9508467 -1.5513138
000200 ff cc fd 3f 7a 26 04 40 84 aa 54 bf 31 54 d4 bf
       1.9828185 2.0648484 -0.83072686 -1.6588193
000210 7d f9 ab 3f 29 0c b8 bf e2 14 02 40 73 f1 9d bf
       1.3435513 -1.4378711 2.0325246 -1.233931
000220 09 81 38 3f 2d f4 99 bf 72 91 9c bf 0e f4 9f bf
       0.7207189 -1.2027642 -1.2231886 -1.2496355
000230 ba 12 e4 bf d7 fc ec bf c2 50 d3 3f c5 0b bb 3f
       -1.7818215 -1.8514661 1.650902 1.4612967
000240 d6 4c b5 3f 73 c0 ac bf 03 31 b6 3e 97 0e 9f bf
       1.4164073 -1.3496231 0.35584268 -1.2426327
000250 de 25 cc bf f0 a6 b5 bf 50 79 a3 3f 79 bc 47 bf
       -1.5949056 -1.419157 1.2771397 -0.7802196
000260 fc c6 ee 3f 1e d2 e0 3f 61 77 ed bf 1c 9e b6 bf
       1.8654475 1.7564123 -1.8552057 -1.4267001
000270 2d 81 dc 3f b9 10 e8 3f 41 9a df 3f c5 46 d4 bf
       1.7226921 1.8130103 1.746895 -1.6584097
000280 79 ae b7 bf 7a 0f d6 3f 9e 54 d4 3f 73 f0 b3 3f
       -1.435012 1.6723473 1.6588323 1.4057754
000290 7f 62 cd bf 84 5e b5 3f 5b e4 d0 3f 22 b0 7a 3f
       -1.6045684 1.4169469 1.6319689 0.9792501
0002a0 00 a9 f1 bf 07 09 84 3f 6e 27 95 3f 1b 27 80 3f
       -1.88797 1.0315255 1.1652658 1.0011934
0002b0 3f 92 d3 bf 3a b4 01 c0 5e d8 c0 bf 77 f6 c8 bf
       -1.6529006 -2.0266252 -1.506603 -1.5700215
0002c0 d9 28 be bf 2d df d4 3e 8c 28 e2 bf f9 42 9a 3f
       -1.4856216 0.4157652 -1.7668624 1.2051688
0002d0 1c 7b dd bf aa b7 c0 3f bb 4a cb bf 3d af ca 3f
       -1.7303195 1.505605 -1.5882181 1.5834728
0002e0 df 82 a3 bf 15 6e d4 bf b7 4f ef bf d2 c9 b4 3f
       -1.2774314 -1.6596094 -1.8696202 1.4124091
0002f0 81 ad df 3f bd cd c0 3f e6 a9 e0 3f 8b c3 b3 3f
       1.7474824 1.5062786 1.7551849 1.404405

slayer.bias f4 [6]
000000 4f 7b 35 3f 74 3c 73 be 6f 05 1e 3f 16 16 19 bf
       0.7089128 -0.2375353 0.6172704 -0.59799325
000010 86 b4 5e be f7 b8 97 be
       -0.21748552 -0.29633304

flayer.weight f4 [6, 32]
000000 b5 42 07 c0 0d 07 0a c0 41 87 b6 bf 60 a8 d7 3f
       -2.1134465 -2.1566803 -1.4260026 1.6848259
000010 6c 2d bb 3f cd ef e9 3f cb e8 05 c0 9e 3e e1 bf
       1.4623237 1.8276306 -2.0923336 -1.7597234
000020 93 81 80 3f 2f 40 d9 bf 4b ad cd bf e4 fd e5 bf
       1.0039543 -1.6972712 -1.606851 -1.7968106
000030 8c 25 ad 3f 5a 77 df bf 41 06 b3 3f 3c 3e b8 3f
       1.3527083 -1.7458298 1.3986284 1.4393992
000040 b8 a8 b1 3f f5 fc db bf 29 dd 13 bf b0 32 d1 bf
       1.3879614 -1.7186571 -0.5775934 -1.6343594
000050 f2 8c 47 bf d0 15 e1 3f f5 a7 af 3f a2 7f b6 bf
       -0.7794944 1.7584782 1.3723131 -1.42577
000060 cf 3e ed bf fa 8c 07 c0 66 9a b6 3f 99 82 df 3f
       -1.8534793 -2.1179795 1.4265869 1.746173
000070 d3 ea a4 3f 72 d1 1e c0 44 38 a3 3f 77 56 d2 3f
       1.2884163 -2.4815335 1.2751546 1.6432637
000080 7c e4 66 3f c3 85 ac bf aa 6a 28 40 78 1d ec 3f
       0.9019239 -1.3478321 2.6315103 1.8446493
000090 f3 01 c4 bf 39 39 b4 bf 17 7f a4 bf 0f 16 ee bf
       -1.5313095 -1.4079963 -1.2851285 -1.8600482
0000a0 a4 83 19 3f 59 28 f3 bf d0 c6 e5 3f 43 fd f5 bf
       0.5996649 -1.8996688 1.7951298 -1.9217914
0000b0 69 d1 0d 40 0a 93 fc 3f 66 20 cd bf d4 8f fe 3f
       2.2159064 1.9732373 -1.6025512 1.9887643
0000c0 44 c5 c4 bf 46 82 18 40 08 29 0f 40 d2 13 e3 3f
       -1.5372701 2.3829513 2.2368793 1.7740424
0000d0 9d f2 2f be fa d8 bc bf d0 17 00 40 31 69 84 be
       -0.17182393 -1.4753716 2.0014534 -0.25861505
0000e0 f5 77 18 40 b6 23 e0 bf 40 69 da 3f cf 88 b2 bf
       2.3823216 -1.7510898 1.706337 -1.3948001
0000f0 d3 32 f2 bf 89 0e 86 3e c5 6d f5 bf db 21 f4 3f
       -1.892176 0.26182964 -1.9174124 1.9072832
000100 7e 6a fe bf 4e cc d9 bf 75 48 b6 bf b8 7a de bf
       -1.9876249 -1.7015474 -1.4240862 -1.7381201
000110 c7 ac ae bf dd e3 b0 bf c6 da d7 bf 3f 7f 22 40
       -1.3646477 -1.3819538 -1.6863639 2.5390165
000120 e3 92 f0 3f fc bb 1e 40 d3 1d ec 3f b7 46 2b 40
       1.8794826 2.4802237 1.8446602 2.676191
000130 2c e3 e3 bf 8e c6 09 40 22 c5 b2 bf 9f f5 df bf
       -1.7803702 2.1527438 -1.396641 -1.7496833
000140 91 99 ac bf 22 a2 f4 bf 7a d2 06 c0 18 4c ec 3f
       -1.3484365 -1.9111979 -2.1065965 1.8460722
000150 d8 e6 25 40 30 1e ac bf 82 5e db bf d5 4e aa bf
       2.5922146 -1.3446712 -1.7138216 -1.3305308
000160 e8 1c d0 be d3 c4 09 40 3c 4b 02 40 97 7e ae bf
       -0.40647054 2.1526382 2.035842 -1.3632382
000170 1e 5c 99 bf 19 19 b7 3e 14 80 96 bf 09 d2 e0 bf
       -1.1981237 0.35761335 -1.1757836 -1.7564098
000180 86 c6 15 40 c7 16 1b 3f fb 46 7e bf f1 3a d2 bf
       2.340242 0.6058163 -0.9932706 -1.6424237
000190 08 a0 df 3f e1 d0 91 3f c2 71 02 3f 50 c6 bf 3f
       1.7470713 1.139187 0.5095483 1.4982395
0001a0 66 85 12 c0 bf 63 b4 3f 29 46 0d c0 0d 51 b6 3f
       -2.289392 1.409294 -2.2074072 1.4243485
0001b0 32 10 03 40 93 a1 04 40 5d d9 b5 3f eb 37 f0 bf
       2.0478635 2.0723617 1.4206959 -1.8767065
0001c0 0e 2a c7 3f ac 50 15 40 d4 38 f1 3f 9c 36 0d c0
       1.5559709 2.3330488 1.8845468 -2.206458
0001d0 b8 37 10 40 8f 1c 97 3f 7a b3 cd bf 0e cc 06 40
       2.2534008 1.180559 -1.6070397 2.1062045
0001e0 3e 47 af bf dc 0e b7 3f 68 5a 9d bf e5 d0 98 3f
       -1.3693616 1.430141 -1.2293215 1.193875
0001f0 8c d9 09 c0 80 df 18 c0 98 24 0a c0 72 f6 d0 bf
       -2.153903 -2.3886414 -2.1584835 -1.6325209
000200 2e e0 1b 40 a5 2b 22 40 69 4d 47 bf 65 01 da bf
       2.4355578 2.5339139 -0.77852494 -1.7031676
000210 4d 92 c1 3f d9 9e cc bf 06 3a 20 40 91 a9 c4 bf
       1.5122772 -1.5985976 2.5035415 -1.5364248
000220 e5 97 54 3f 3f b9 c0 bf c2 58 a7 bf 1c 8f c8 bf
       0.8304427 -1.5056533 -1.3073962 -1.5668674
000230 97 9f f5 bf 5b 1d 0d c0 c1 db f3 3f 16 04 ec 3f
       -1.9189328 -2.2049167 1.9051439 1.8438747
000240 80 bf d1 3f 17 70 b9 bf 98 9a f4 3e 5f 9b a7 bf
       1.6386566 -1.4487332 0.47774196 -1.309429
000250 9e 4d f9 bf d3 18 cb bf 88 72 cc 3f 55 93 68 bf
       -1.9476812 -1.5866951 1.5972452 -0.9084981
000260 88 b3 1a 40 62 56 01 40 64 e9 fd bf e7 a7 cd bf
       2.4172077 2.0208974 -1.983685 -1.6066865
000270 46 59 fe 3f 29 77 12 40 01 07 ff 3f 88 3f d8 bf
       1.9870994 2.288523 1.9924012 -1.6894388
000280 ba b1 c9 bf b8 c1 02 40 f0 8c fe 3f dc 32 c7 3f
       -1.5757363 2.0430737 1.9886761 1.5562396
000290 56 db ea bf f1 b3 b6 3f e0 ae 00 40 4c bc 8c 3f
       -1.8348186 1.4273664 2.0106735 1.0994964
0002a0 96 8c 00 c0 0d 3f 96 3f 38 a6 bc 3f 60 c3 95 3f
       -2.0085807 1.1737992 1.4738226 1.1700249
0002b0 f1 7a f3 bf 82 dc 0f c0 32 f3 dc bf 49 96 d3 bf
       -1.9021894 -2.2478337 -1.7261717 -1.6530238
0002c0 96 39 db bf 9c bf bb 3e c1 42 f7 bf 54 8b c1 3f
       -1.7126949 0.36669624 -1.9317247 1.5120645
0002d0 ca 47 ff bf 3b ea bb 3f 48 0f d4 bf a6 54 e6 3f
       -1.9943783 1.4680856 -1.6567163 1.7994583
0002e0 a7 e3 9b bf ae a3 e0 bf 5f a1 fb bf 94 d2 b5 3f
       -1.2178849 -1.7549951 -1.9658622 1.4204888
0002f0 58 7d fd 3f a4 8b fa 3f 3f ce ff 3f eb 16 c5 3f
       1.9803877 1.9573865 1.9984816 1.5397619

flayer.bias f4 [6]
000000 15 ac aa bd 4d 00 27 be 73 1a ed 3e 47 d3 0a be
       -0.08333603 -0.16308708 0.46309242 -0.13557158
000010 40 28 20 be 74 bc af bc
       -0.15640354 -0.021452166
